unet_model.pth (torch, 16156 bytes, 4 tensors)

encoder.0.weight f4 [64, 3, 3, 3]
0	0xbc9dc494	-0.019258775
1	0x3e1f1add	0.15537591
2	0xbc9c9381	-0.019113304
3	0xbd12488f	-0.03571373
4	0x3d6e046b	0.058109682
5	0xbd91af76	-0.07113545
6	0xbb77dc75	-0.0037820612
7	0xbe148cd0	-0.1450684
8	0xbe3d3af5	-0.18479522
9	0x3deac8bd	0.11464069
10	0x3da025ab	0.078196846
11	0x3ce3ebfd	0.027822489
12	0x3d05a04f	0.032623585
13	0xbd2b2635	-0.041784484
14	0x3e3bb534	0.18330842
15	0x3d536294	0.051607683
16	0xbe18e9ff	-0.14933012
17	0x3dcc965f	0.099896185
18	0xbd0a6bd9	-0.033794258
19	0x3d4eb2b0	0.05046338
20	0x3d4189ea	0.047250666
21	0xbc37ed43	-0.011226001
22	0x3c506d1e	0.012721328
23	0xbdae939f	-0.0852425
24	0xbc69702f	-0.014247938
25	0x3cd5ec3b	0.02611362
26	0xbe2c5de5	-0.16832693
27	0xbbee8802	-0.007279397
28	0x3e098838	0.1343087
29	0x3d944979	0.07240576
30	0x3ca094ec	0.019602261
31	0xbddedb3e	-0.10881661
32	0xbd4ffe64	-0.050779715
33	0xbd227a7d	-0.039667595
34	0xbd1b5b57	-0.037928905
35	0xbd543504	-0.051808372
36	0x3dca6941	0.09883357
37	0x3dba2b44	0.090902835
38	0x3d773459	0.060352657
39	0x3d1f02d2	0.03882105
40	0x3d665c85	0.056240577
41	0xbc29c661	-0.010362239
42	0xbe522cd1	-0.20524909
43	0x3d31ec0a	0.043437995
44	0xbdb94bf4	-0.0904769
45	0xbe4abe93	-0.19799261
46	0x3d8a17fe	0.067428574
47	0xbc24e1b8	-0.010063581
48	0xbe694e1b	-0.22783701
49	0xbdcbfe52	-0.09960617
50	0x3e0994d9	0.13435687
51	0x3d9d71a3	0.0768769
52	0x3ca12073	0.019668793
53	0xbe39b075	-0.1813372
54	0xbd912304	-0.07086757
55	0xbe16bf4f	-0.14721416
56	0xbe0cad45	-0.13737972
57	0xbd4ead8f	-0.050458487
58	0xbc8b422f	-0.016999332
59	0x3e0da840	0.13833714
60	0x3e071729	0.13192429
61	0xbba31aba	-0.0049775513
62	0x3d952e0c	0.07284173
63	0xbdbbe466	-0.09174423
64	0xbdd64f37	-0.10464328
65	0x3e1da250	0.15393949
66	0xbdaf2d43	-0.08553555
67	0xbd297cb5	-0.041378696
68	0x3da5721f	0.080784075
69	0xbb8e2b8a	-0.0043386864
70	0xbe02011a	-0.12695733
71	0xbd62acef	-0.055340704
72	0xbc1407a3	-0.009035024
73	0x3e38fbe2	0.18064836
74	0xbe0f0aad	-0.13968916
75	0xbe41040a	-0.18849197
76	0xbba91767	-0.0051602605
77	0xbd932494	-0.07184711
78	0xbe2b1f5b	-0.1671118
79	0xbda3ba38	-0.07994503
80	0xbc8d652a	-0.017260153
81	0xbe788851	-0.2427075
82	0xbe74861d	-0.23879285
83	0xba488967	-0.0007649869
84	0xbe044bc5	-0.12919529
85	0x3d3245aa	0.043523468
86	0x3dd6d0e5	0.10489062
87	0xbe56439c	-0.20924228
88	0x3d7c0b6e	0.061534338
89	0xbbfe5c92	-0.0077625
90	0xbc1a35e9	-0.009412267
91	0xbb4d17c9	-0.0031294695
92	0xbdaac93d	-0.083391644
93	0xbd99a9c5	-0.07503084
94	0x3e0a5907	0.13510524
95	0x3e1717a6	0.14755115
96	0xbe3b9df1	-0.18321969
97	0xbdf347d0	-0.118789315
98	0xbe33e74d	-0.17568703
99	0x3d0ef4c0	0.03490138
100	0xbe577837	-0.21041952
101	0x3cc020e4	0.023453183
102	0x3d17ba96	0.037043177
103	0x3ccf75d2	0.025324736
104	0x3d3be344	0.045871034
105	0xbde20616	-0.11036317
106	0xbe009d69	-0.12560047
107	0xbd7b518f	-0.061357077
108	0xbda6bfc3	-0.081420444
109	0xbe5051b5	-0.20343669
110	0xbe0ba2cd	-0.13636322
111	0xbe06969e	-0.13143393
112	0xbe505bec	-0.20347565
113	0xbdec0808	-0.11524969
114	0x3dda8949	0.10670716
115	0x3d0f0414	0.034916
116	0xbdd0165b	-0.10160514
117	0x3df2475c	0.11830017
118	0x3e034e6c	0.12822884
119	0xbe22b22e	-0.15888283
120	0xbe2a9ef8	-0.16662204
121	0x3e035931	0.12826993
122	0xbd9abc11	-0.07555402
123	0x3d902b84	0.0703955
124	0xbda3a4ee	-0.07990442
125	0x3e1e9b01	0.15488817
126	0xbd660bd9	-0.056163643
127	0x3da9bf30	0.08288419
128	0xbd06e375	-0.032931764
129	0xbc0f6331	-0.008751676
130	0xbe26940f	-0.16267417
131	0x3c2828a2	0.010263594
132	0xbe1f5926	-0.15561351
133	0x3d304083	0.043030273
134	0x3df9206e	0.121643886
135	0x3b137ecf	0.0022506004
136	0xbe68b067	-0.22723542
137	0xbd2d4eff	-0.042311665
138	0x3d1e8bb9	0.03870747
139	0x3d6d8b2e	0.05799406
140	0x3d090f8c	0.033462092
141	0xbd0ad388	-0.03389314
142	0x3d2fef38	0.042952746
143	0xbdd7cfe3	-0.10537698
144	0xbdb5269a	-0.08845253
145	0x3e0c48ab	0.13699596
146	0xbe3c654b	-0.18398015
147	0x3db66cf2	0.089074984
148	0xbd87ae8f	-0.06625091
149	0x3cb5833a	0.0221573
150	0xbb49bcd0	-0.0030782707
151	0x3e0e8219	0.13916816
152	0x3dbe982e	0.0930637
153	0xbe300378	-0.17188823
154	0xbe152fb3	-0.14568977
155	0x3d5140c7	0.051087167
156	0xbdfa63dd	-0.12226079
157	0x3d0712f8	0.032977074
158	0x3e0dad51	0.13835646
159	0x3e2356b2	0.1595104
160	0x3c936574	0.017992713
161	0x3e2160f4	0.15759641
162	0x3dac5c30	0.08416021
163	0xbd290eb0	-0.041273773
164	0xbe35bf73	-0.17748813
165	0xbe30cdca	-0.17266002
166	0xbe3c0240	-0.18360233
167	0xbca153be	-0.019693252
168	0x3c89fd09	0.01684429
169	0x3e04a22b	0.12952487
170	0xbe40be2f	-0.1882255
171	0x3df07a4f	0.117420785
172	0x3db3f649	0.087872095
173	0xbe094706	-0.13406
174	0xbb907363	-0.0044082864
175	0x3e1c6ead	0.15276594
176	0xbe2a3bae	-0.16624328
177	0x3ccc7b33	0.02496109
178	0xbda63b5b	-0.0811679
179	0xbd7ce878	-0.061745137
180	0xbda7f900	-0.0820179
181	0xbdb3e82c	-0.08784518
182	0xbe2a3494	-0.1662162
183	0x3d238ddc	0.03993021
184	0x3db01385	0.08597473
185	0xbd8ed8ef	-0.069749705
186	0xbe07022d	-0.13184424
187	0x3e28cc1b	0.1648411
188	0xba49e5f0	-0.0007701805
189	0xbe13515b	-0.14386503
190	0x3d52b673	0.05144353
191	0x3dcaa4e0	0.09894729
192	0xbe5989e6	-0.2124401
193	0xbb95ad5e	-0.004567786
194	0x3d976ff7	0.073944025
195	0x3d03d127	0.032181885
196	0xbe5cb49a	-0.21553269
197	0xbe6a8679	-0.2290286
198	0xbe6515a7	-0.22371541
199	0x3d96422d	0.07336841
200	0xbb477d1c	-0.0030439561
201	0xbe1f2d9e	-0.15544745
202	0xbc48d725	-0.012258326
203	0x3d53a845	0.051674146
204	0xbc9f1603	-0.019419676
205	0xbe7268f3	-0.23672847
206	0x3d60555a	0.054768898
207	0xbc04935e	-0.008091776
208	0xbd2c4c5f	-0.04206502
209	0xbe389a2f	-0.18027566
210	0xbe4e7272	-0.20160845
211	0xbe76eea5	-0.24114473
212	0xbe043886	-0.12912187
213	0xbe386e9f	-0.18010949
214	0xbc4522a8	-0.0120321885
215	0xbdc94de3	-0.09829309
216	0xbe9b83f2	-0.30374104
217	0xbea25496	-0.3170516
218	0xbe2c1937	-0.16806494
219	0x3d229bbf	0.039699312
220	0xbe63dd88	-0.22252476
221	0xbdcb4b66	-0.099264905
222	0xbe299e43	-0.16564278
223	0x3d35bc7c	0.044369206
224	0x3d64003b	0.055664282
225	0xbe960cfe	-0.29306787
226	0xbd78de78	-0.060759038
227	0xbe7db3f9	-0.24775685
228	0xbd86cd6c	-0.0658215
229	0xbe810ce2	-0.2520514
230	0xbe12e0b2	-0.14343527
231	0x3d4957f9	0.049156163
232	0xbe8949ac	-0.2681402
233	0xbd9b868a	-0.07594021
234	0xbebc7ade	-0.3681249
235	0xbe489ae4	-0.19590336
236	0xbe1eaa40	-0.15494633
237	0xbdc837ae	-0.09776245
238	0xbd4d22a7	-0.050081875
239	0xbe517575	-0.20454963
240	0xbe126033	-0.1429451
241	0xbd20c67c	-0.03925179
242	0xbba6b119	-0.0050870297
243	0xbdb04e0a	-0.08608635
244	0x3e088cbf	0.1333494
245	0x3e1f944b	0.15583913
246	0xbde0b82a	-0.109726265
247	0xbd83092a	-0.06398232
248	0xbe61686e	-0.22012493
249	0xbdc465d7	-0.09589737
250	0xbe4c1152	-0.19928482
251	0x3ab94e6c	0.0014137751
252	0x3d8ddc3f	0.06926774
253	0x3dc2d068	0.095124066
254	0xbde7d80f	-0.11320507
255	0x3db8e0cd	0.09027252

encoder.0.bias f4 [64]
0	0xbd636ddd	-0.055524696
1	0x3cfcbd2b	0.030851921
2	0xbdcf69a5	-0.10127572
3	0xbe3d9522	-0.18513921
4	0x3d8d0beb	0.06887039
5	0xbd22ecfe	-0.039776795
6	0xbe2c4ff8	-0.1682738
7	0xbe709d01	-0.23497392
8	0xbea0d290	-0.31410646
9	0x3d6fa1ce	0.05850392
10	0xbe2823d0	-0.16419911
11	0xbe0f59ae	-0.13999054
12	0x3d1f1267	0.03883591
13	0xbd466c50	-0.04844314
14	0xbca304a9	-0.019899683
15	0x3def2f74	0.11678973
16	0xbda57856	-0.08079593
17	0x3d132a55	0.035929043
18	0xbdf40a69	-0.11916048
19	0xbd3d8296	-0.046267115
20	0x3dbc93ed	0.09207902
21	0x3cbbcbda	0.022924352
22	0xbd039941	-0.032128576
23	0xbe2df705	-0.16988762
24	0xbe4c255e	-0.1993613
25	0xbcc4fb79	-0.024045693
26	0xbc94df72	-0.018172953
27	0x3f1b29d9	0.6061073
28	0xbe359112	-0.17731121
29	0xbda9246f	-0.08258902
30	0x3d962b0d	0.0733243
31	0xbe1b0485	-0.15138443
32	0x3dc243bf	0.09485578
33	0xbd8790a3	-0.06619384
34	0xbe0db398	-0.13838041
35	0xbe013a7d	-0.12619968
36	0xbe484e9e	-0.1956124
37	0xbe051e6f	-0.1299989
38	0x3de46ed1	0.11153949
39	0xbe66f710	-0.22555184
40	0x3d3efe98	0.04662952
41	0xbd7a86b7	-0.06116363
42	0x3d596be9	0.053081427
43	0xbe27ae84	-0.16375166
44	0xbd81223f	-0.0630536
45	0x3dbd919a	0.09256287
46	0x3dae94d6	0.08524482
47	0xbd483e97	-0.048887815
48	0xbdb5a8f8	-0.08870119
49	0x3dfa04b9	0.12207932
50	0xbe03ea60	-0.12882376
51	0x3dd17878	0.10228056
52	0x3dec923c	0.115513295
53	0x3dcad735	0.09904329
54	0xbdf8a9db	-0.12141772
55	0xbe1f852b	-0.15578143
56	0xbe78d7bb	-0.24301045
57	0x3e0a86fd	0.13528056
58	0x3e0eed9a	0.13957825
59	0xbe0cfb9c	-0.13767856
60	0x3d9c54e2	0.076333776
61	0x3e0e059e	0.1386933
62	0x3de9ccf5	0.114160456
63	0xbddef887	-0.108872466

decoder.0.weight f4 [3, 64, 3, 3]
0	0xbc2fbe96	-0.010726592
1	0xbd247c68	-0.040157706
2	0xbc8e37c7	-0.017360581
3	0x3c726eac	0.014796894
4	0x3cd8fd88	0.02648808
5	0x3ce91057	0.028450174
6	0x3c82c99d	0.015965277
7	0x3c5a2c27	0.013316191
8	0x3c22453a	0.0099042
9	0x3d1558cb	0.036461633
10	0x3c25bb0e	0.010115398
11	0xbd0ad461	-0.033893947
12	0xbca7bb91	-0.02047518
13	0x3c96355f	0.018335996
14	0x3b58adbe	0.0033062543
15	0xbc9d7d08	-0.019224659
16	0x3c6bed22	0.014399799
17	0xbb89e545	-0.0042082393
18	0x3ab3d51d	0.0013720129
19	0x3c7360cf	0.014854624
20	0x3c7aebf2	0.015315043
21	0x3bfc7cbb	0.0077052987
22	0x3d14443d	0.03619789
23	0x3d1e1d67	0.03860226
24	0x3ca20263	0.019776529
25	0x3d192d48	0.0373967
26	0xbb310300	-0.0027009845
27	0xbdc1109a	-0.094269946
28	0xbdbd78aa	-0.092515305
29	0xbdb7829f	-0.08960461
30	0xbe034f7a	-0.12823287
31	0xbdb53941	-0.08848811
32	0xbde0d512	-0.1097814
33	0xbe125dff	-0.14293669
34	0xbd7f6acb	-0.062357705
35	0xbe271e6b	-0.16320197
36	0xbc201b4d	-0.009772134
37	0x3cfd68f4	0.030933835
38	0xbc76ee86	-0.015071517
39	0x3d5e9c06	0.054348014
40	0x3c4ba0c8	0.01242847
41	0x3bd79811	0.006579407
42	0x3b761d9f	0.0037554277
43	0xbbaf38bc	-0.0053473394
44	0xbcad0c15	-0.021123925
45	0x3c0723fc	0.008248325
46	0x3bb0b6ff	0.0053929086
47	0xbbda0d97	-0.006654452
48	0x3d8b5c50	0.068047166
49	0x3cbb3a0a	0.022854824
50	0x3cfa00e1	0.030517997
51	0xbcb2ba81	-0.021817448
52	0xbc34d4d8	-0.011037074
53	0xbcb032aa	-0.021508534
54	0xba192956	-0.00058426464
55	0x3c34f3cf	0.011044457
56	0x3cad627d	0.021165127
57	0x3c63e3bb	0.013909276
58	0xbc8c1371	-0.017099114
59	0x3cdc4272	0.026887152
60	0xbc394230	-0.011307284
61	0x3bdc5c81	0.0067248945
62	0x3cf4771e	0.029841956
63	0xbdbbb47e	-0.091652855
64	0xbe0b02bb	-0.1357526
65	0x3c15367f	0.009107231
66	0xbd337b7c	-0.043818936
67	0x3cb0ddbc	0.021590106
68	0x3bfd085e	0.0077219447
69	0xbd465802	-0.048423775
70	0xbdae6269	-0.08514864
71	0x3ccc6684	0.024951227
72	0xbd9f7a42	-0.07786991
73	0xbd726e27	-0.05918708
74	0xbe048fc9	-0.12945475
75	0xbd871f42	-0.06597759
76	0xbd81b990	-0.06334221
77	0xbd835469	-0.06412584
78	0xbe092662	-0.13393548
79	0xbe0dae3b	-0.13835995
80	0xbe002e53	-0.12517671
81	0xbb59e43c	-0.003324761
82	0x3cf849a8	0.03030856
83	0xbd46d829	-0.04854599
84	0xbcd0bd10	-0.025480777
85	0xbb7401f0	-0.00372326
86	0x3cbf4fec	0.02335354
87	0xbd08eec6	-0.033430837
88	0x3cc3238e	0.023820665
89	0x3cdc669f	0.026904402
90	0xbb92d29f	-0.0044806744
91	0xbb1c929d	-0.00238911
92	0xbca1a587	-0.01973225
93	0x3c613a5a	0.013746822
94	0xbcb67cd4	-0.02227632
95	0x3acc92a7	0.0015607671
96	0xbd094c4c	-0.033520028
97	0x3d135a16	0.035974585
98	0x3ccee895	0.025257388
99	0xbe04fa1c	-0.12986034
100	0xbde32e13	-0.11092772
101	0xbe38e06e	-0.18054363
102	0xbe2ae64c	-0.16689414
103	0xbe3debec	-0.18547028
104	0xbe069284	-0.13141829
105	0xbe14a0cc	-0.14514464
106	0xbe2eed2f	-0.17082666
107	0xbe0f4aeb	-0.13993423
108	0x3b88db98	0.0041765682
109	0x3d05a9b2	0.032632537
110	0xbbf80731	-0.0075692167
111	0x3d138f15	0.036025126
112	0x3d48a3bf	0.048984285
113	0xbc0fb122	-0.008770259
114	0x3ce011d5	0.027352253
115	0x3b72dfc7	0.0037059651
116	0xbc711da3	-0.014716539
117	0x3c717d42	0.014739336
118	0x3b3fb43b	0.0029251713
119	0xbc0bafb6	-0.0085257795
120	0xbc9c7f02	-0.01910353
121	0xbb2d1c9e	-0.0026414762
122	0x3cda799f	0.026669322
123	0x3cfdf5e2	0.031001035
124	0xbbc29c69	-0.0059390557
125	0x3ce6eabc	0.028188102
126	0x3d0a89d2	0.033822842
127	0x3d2834e5	0.04106607
128	0xbc15eecf	-0.009151175
129	0xbcc23429	-0.023706513
130	0xbc785bb5	-0.015158583
131	0x3c4442ca	0.011978814
132	0x3d3dc9e3	0.046335112
133	0x3c85757a	0.016291369
134	0x3cb8771c	0.022517733
135	0xbd1112d3	-0.035418343
136	0xbc0de7c4	-0.008661214
137	0xbc00bc74	-0.007857431
138	0x3cc2f4bd	0.023798341
139	0x3d4d25bb	0.05008481
140	0x3d46d818	0.048545927
141	0xbce40b21	-0.027837338
142	0x3c94abf4	0.0181484
143	0x3b00294c	0.0019555865
144	0xbdc0667e	-0.09394549
145	0xbd9e2c10	-0.07723248
146	0xbcc35e2e	-0.02384862
147	0xbc3d7a2d	-0.0115647735
148	0x3d0d02e0	0.03442657
149	0xbb9fd915	-0.004878173
150	0x3b8920cf	0.0041848193
151	0x3bc3a8e8	0.005971063
152	0xbd2e1cd8	-0.042507976
153	0xbcbf1963	-0.023327535
154	0xbd069b69	-0.032863054
155	0xbc1c26a2	-0.009530695
156	0x3d76002a	0.06005875
157	0x3dcf1d46	0.10113005
158	0x3d1c1289	0.038103614
159	0xbd92d68d	-0.071698286
160	0x3bbc7b0e	0.005751974
161	0xbd4d39a3	-0.050103795
162	0x3c0249e0	0.0079521835
163	0x3d201cdc	0.039090022
164	0x3b806d60	0.0039192885
165	0x3ab7cf00	0.0014023483
166	0x3cb04516	0.021517318
167	0x3be22816	0.0069017513
168	0xbc38a6c0	-0.011270225
169	0xbbce4716	-0.006295095
170	0xbd0bc7ce	-0.034126095
171	0x3b56c68a	0.0032772147
172	0xbc47b247	-0.012188501
173	0x3c0e1c1a	0.008673692
174	0x3bb8217d	0.0056192265
175	0x3c7e1450	0.015507773
176	0xbc03d135	-0.008045484
177	0xbd04ffb4	-0.03247042
178	0xbd6ef8d6	-0.058342777
179	0xbd64d849	-0.055870328
180	0xbd392990	-0.045205653
181	0x3bd0b312	0.006369003
182	0xbc3a9d2b	-0.011390011
183	0xbcf78ea1	-0.030219378
184	0x3d114826	0.035469197
185	0x3c94fd7e	0.01818728
186	0x3c0cd0b3	0.00859468
187	0x3d4e0e5d	0.050306667
188	0xbb20e069	-0.0024547821
189	0xbd1c1fa5	-0.038116116
190	0x3d3df12a	0.04637257
191	0xbba9cc27	-0.0051818076
192	0xbc6652bc	-0.014057811
193	0x3c0060ed	0.007835609
194	0x3c55abe9	0.013041475
195	0xbc8683c4	-0.016420253
196	0xbc91801c	-0.017761283
197	0x3cd881e8	0.026429132
198	0x3be355c6	0.006937715
199	0x3d68af88	0.056808025
200	0x3c182d28	0.00928811
201	0x3d27157f	0.040791985
202	0x3c0a1d7b	0.00842988
203	0x3b69ac9c	0.0035655862
204	0x3d705554	0.058675125
205	0x3dac9266	0.08426361
206	0x3d6791fc	0.056535706
207	0x3c15700b	0.009120951
208	0xba0425d7	-0.0005041039
209	0xbd0d5310	-0.034503043
210	0x3a8960bb	0.0010481098
211	0x3c98c103	0.018646723
212	0x3b13fc8d	0.0022580952
213	0x3ac6e6f9	0.0015175036
214	0x3ceef09c	0.029167466
215	0xbcd636ae	-0.02614912
216	0xba8906f3	-0.0010454342
217	0x3ce1dac5	0.027570138
218	0x3c03b006	0.008037573
219	0x3c808fc3	0.01569355
220	0x3cd9a411	0.02656749
221	0xbd19f845	-0.037590284
222	0x3c36531c	0.011128213
223	0x3d0c9437	0.034321036
224	0x3cded550	0.027201325
225	0xbbb12c76	-0.0054069115
226	0x3b91a132	0.004444265
227	0x3d10378b	0.03520922
228	0xbbe1d619	-0.0068919775
229	0x3cc0165a	0.023448158
230	0x3cbae323	0.022813385
231	0x3cee5163	0.029091543
232	0xbc6bd99e	-0.014395146
233	0xbcff88fb	-0.031193247
234	0xbc2fec56	-0.010737499
235	0x3cddbf71	0.027068825
236	0x3ce3d0e3	0.027809566
237	0x3d4a3873	0.04937024
238	0xbc137b9e	-0.009001641
239	0x3d866914	0.06563011
240	0xbcafa283	-0.021439796
241	0xbce411a6	-0.027840447
242	0x3c20c07b	0.009811516
243	0x3e3b7d3b	0.1830949
244	0x3e66d094	0.22540504
245	0x3e2317a9	0.15926994
246	0x3e5cc8da	0.21560994
247	0x3e842443	0.25808915
248	0x3e53d11a	0.20685235
249	0x3e4482eb	0.19190566
250	0x3e529d15	0.20567735
251	0x3e44327a	0.1915988
252	0x3dd979c9	0.10618932
253	0x3dc7ad51	0.09749854
254	0x3dd035fd	0.101665474
255	0x3df7f317	0.121069126

decoder.0.bias f4 [3]
0	0x3f137caf	0.5761213
1	0x3da394ef	0.07987391
2	0xbc7d526f	-0.015461548
